…
RMSE: 0.0018810404
R2: 0.7759026966468205

Fold: 6
MAE: 0.0014809992
MSE: 3.86794e-06
RMSE: 0.0019667079
R2: 0.7550259610723431

Fold: 7
MAE: 0.0016824664
MSE: 5.086141e-06
RMSE: 0.0022552474
R2: 0.6778718182031789

Fold: 8
MAE: 0.0018326754
MSE: 5.329008e-06
RMSE: 0.0023084644
R2: 0.6624899132209356

Fold: 9
MAE: 0.0009952701
MSE: 1.715269e-06
RMSE: 0.0013096828
R2: 0.8917092384396228

Fold: 10
MAE: 0.0010685885
MSE: 2.186575e-06
RMSE: 0.0014787072
R2: 0.8619540941557232
Valuation Result: 
MAE: 0.0010915282
MSE: 1.9183415e-06
RMSE: 0.0013850421
R2: 0.8702478028739314



Model: HeatMapCNN(
  (conv1): Conv2d(3, 9, kernel_size=(3, 3), stride=(1, 1), padding=(1, 1))
  (conv2): Conv2d(9, 9, kernel_size=(3, 3), stride=(1, 1))
  (fc1): Linear(in_features=16641, out_features=1, bias=True)
)
Learning rate: 0.0001
Epoch: 1000
Fold: 1
MAE: 0.001047733
MSE: 1.9140698e-06
RMSE: 0.0013834991
R2: 0.8787733494408815
Model: HeatMapCNN(
  (conv1): Conv2d(3, 9, kernel_size=(3, 3), stride=(1, 1), padding=(1, 1))
  (conv2): Conv2d(9, 9, kernel_size=(3, 3), stride=(1, 1))
  (fc1): Linear(in_features=16641, out_features=1, bias=True)
)
Learning rate: 0.0001
Epoch: 1000
Fold: 1
MAE: 0.001016325
MSE: 1.6897966e-06
RMSE: 0.0012999218
R2: 0.8929775632589414

Fold: 2
MAE: 0.0009889203
MSE: 2.0910757e-06
RMSE: 0.0014460552
R2: 0.8675627544797866

Fold: 3
MAE: 0.0008729247
MSE: 1.3580353e-06
RMSE: 0.0011653478
R2: 0.9139895084721915

Fold: 4
MAE: 0.0008666992
MSE: 1.343304e-06
RMSE: 0.0011590099
…
R2: 0.7302645453040028

Fold: 5
MAE: 0.27908048
MSE: 0.14406785
RMSE: 0.3795627
R2: 0.7875320792516054

Fold: 6
MAE: 0.2851526
MSE: 0.17452338
RMSE: 0.41775995
R2: 0.742616963922659

Fold: 7
MAE: 0.294634
MSE: 0.16797802
RMSE: 0.40985122
R2: 0.7522699323817239

Fold: 8
MAE: 0.31587815
MSE: 0.18115735
RMSE: 0.42562583
R2: 0.732833365890718

Fold: 9
MAE: 0.27854913
MSE: 0.1530107
RMSE: 0.39116582
R2: 0.7750751681618456

Fold: 10
MAE: 0.24810208
MSE: 0.11304145
RMSE: 0.3362164
R2: 0.8338297308909131
Valuation Result: 
MAE: 0.24574605
MSE: 0.111094914
RMSE: 0.33330902
R2: 0.7890169290059869
Model: HeatMapCNN(
  (conv1): Conv2d(3, 9, kernel_size=(3, 3), stride=(1, 1), padding=(1, 1))
  (conv2): Conv2d(9, 9, kernel_size=(3, 3), stride=(1, 1))
  (conv3): Conv2d(9, 9, kernel_size=(3, 3), stride=(1, 1))
  (fc1): Linear(in_features=15129, out_features=1, bias=True)
)
Learning rate: 0.0001
Epoch: 1000
Fold: 1
MAE: 0.31318736
MSE: 0.18818548
RMSE: 0.4338035
R2: 0.7224684260469412

Fold: 2
MAE: 0.3058573
MSE: 0.1769833
RMSE: 0.4206938
R2: 0.7389891691248767

Fold: 3
MAE: 0.30972737
MSE: 0.1981945
RMSE: 0.4451904
R2: 0.707707358295506
Model: HeatMapCNN(
  (conv1): Conv2d(3, 9, kernel_size=(3, 3), stride=(1, 1), padding=(1, 1))
  (conv2): Conv2d(9, 9, kernel_size=(3, 3), stride=(1, 1))
  (conv3): Conv2d(9, 9, kernel_size=(3, 3), stride=(1, 1))
  (fc1): Linear(in_features=15129, out_features=1, bias=True)
)
Learning rate: 1e-05
Epoch: 1000
Fold: 1
MAE: 0.41650528
MSE: 0.32744348
RMSE: 0.57222676
R2: 0.5170939614819376
Model: HeatMapCNN(
  (conv1): Conv2d(3, 9, kernel_size=(3, 3), stride=(1, 1), padding=(1, 1))
  (conv2): Conv2d(9, 9, kernel_size=(3, 3), stride=(1, 1))
  (conv3): Conv2d(9, 9, kernel_size=(3, 3), stride=(1, 1))
  (fc1): Linear(in_features=15129, out_features=1, bias=True)
)
Learning rate: 0.0005
Epoch: 1000
Fold: 1
MAE: 0.15817693
MSE: 0.04959075
RMSE: 0.2226898
R2: 0.9268647167634678

Fold: 2
MAE: 0.17925397
MSE: 0.061958056
RMSE: 0.24891375
R2: 0.9086257070265485

Fold: 3
MAE: 0.17359369
MSE: 0.08180116
RMSE: 0.286009
R2: 0.8793615490898977

Fold: 4
MAE: 0.18432416
MSE: 0.072618686
RMSE: 0.26947853
R2: 0.8929036659268176
…
